HW1_Regression_PM2.5Prediction/weight.npy (npy, 1432 bytes, 1 tensors)

array f8 [163, 1]
000000 ef 5b 5f dc c0 5f 35 40 30 c2 dd 5c 20 8a d8 3f
       21.374036572724375 0.383430567445461
000010 22 63 a4 a5 e9 81 ea bf 4e 39 a4 dd 50 b6 f0 3f
       -0.8283584819028855 1.04451071337424
000020 1f 0c 3c 05 60 74 f9 bf 1e b7 28 fa d2 82 a8 bf
       -1.5909118847346304 -0.04787310889910955
000030 b7 bb 2a 51 3d d6 ef 3f a2 02 1d 96 cc 72 d9 bf
       0.9949022851268329 -0.3976317850065617
000040 93 48 6b ca c0 22 fa bf c8 48 9f 08 c6 bf ff 3f
       -1.6334846407885706 1.9843197190098625
000050 d2 01 71 ce ba 89 d4 bf dd 69 a1 2b be 9e c2 3f
       -0.32090635452553073 0.1454694474258095
000060 3b 95 eb ab ee 96 b5 3f 7e 7a bb 1b 85 e0 b7 3f
       0.08433429429313304 0.0932696526246932
000070 25 72 48 c3 e3 ed 93 bf 10 3b 0b 3d 76 e3 99 bf
       -0.019462164682510292 -0.025281760669538633
000080 71 0c ac fc 57 3c c7 bf 5b f3 9e db 18 ae c4 3f
       -0.1815290435552899 0.1615630218856506
000090 b1 a0 26 bb 65 8a e0 3f 2a 9a df d4 3a f2 aa 3f
       0.5168942122736749 0.05262931679299172
0000a0 b0 b2 76 0e 3a c7 9a bf 72 0a 1d b2 f4 b8 b0 3f
       -0.02615061486510467 0.06532220219109222
0000b0 4a 4d f3 cb a0 8b c4 bf 47 64 bd ec 84 7c c3 3f
       -0.16051111181750805 0.15223752555428602
0000c0 e5 da 8a 60 de 2d 95 bf 23 af 0d 96 93 0a c5 bf
       -0.02068278755424559 -0.16438526942089834
0000d0 86 9b b9 68 48 0b b4 3f 12 77 30 95 f6 d9 d9 3f
       0.07829716259730732 0.4039284188200877
0000e0 3f 03 e0 11 c0 1a d4 bf b0 c2 6d f0 21 7f d8 3f
       -0.31413270707712465 0.3827595565735846
0000f0 f7 3d 8c d8 d9 4a d0 bf 0b de 27 ef 00 a2 d2 3f
       -0.25456854007003876 0.2911379180436319
000100 61 a6 36 5b 7f 77 d4 3f c4 73 8a b8 e3 95 e0 bf
       0.31979354770246543 -0.518297062331492
000110 a2 51 9f 15 75 c5 b6 3f 93 65 8c 48 e1 c3 c6 3f
       0.08895046022309441 0.17785278360751686
000120 9f df b0 ae bc f1 b4 3f 4b f7 0c 4a 71 f8 b7 3f
       0.0818136145106778 0.09363468225361975
000130 5f fe ce 44 b1 15 b1 3f e2 03 9d 6d 75 e8 cf 3f
       0.06673725061318113 0.24928157665456668
000140 1f a4 6e 63 33 37 e0 bf b2 bb 49 63 6a 09 d0 bf
       -0.5067383710894581 -0.2505746812448094
000150 28 0a d1 04 9f b2 d9 bf 7a cc f4 9f 29 99 90 bf
       -0.40152717085234935 -0.016209268939928446
000160 6f 4f 03 e0 99 18 bd bf 30 75 fc 5f 0f 69 e0 bf
       -0.1136566326052255 -0.5128247141580342
000170 9b 89 ad b0 fb 9f d2 3f 19 db 54 e5 df 6a cb bf
       0.29101459745120345 -0.2141990537436065
000180 20 c4 88 d9 51 6c c9 bf d2 f0 fc 8e 53 b3 f5 bf
       -0.19861815568722907 -1.3562808595152558
000190 ca 32 f1 ea 41 95 eb bf 22 b9 bc f2 f0 33 e2 bf
       -0.8619699085916974 -0.5688404789887367
0001a0 74 31 e1 ed 1e 17 e0 bf 23 a1 54 94 d0 ea f8 bf
       -0.5028223653876425 -1.5573278230822971
0001b0 73 91 13 6d ef 57 e4 3f 19 5e a5 32 02 67 9e bf
       0.6357342844390089 -0.02968982156866504
0001c0 0e 9a 10 fc ef 6a d8 bf ae 9e 38 75 36 63 c0 3f
       -0.381526943356591 0.12802773212137225
0001d0 9f ca 71 59 b8 46 f7 3f 35 5a 95 07 36 29 ed 3f
       1.4547656530309394 0.9112806461442405
0001e0 75 31 1b 39 f4 e5 e8 3f 47 e3 5d ec 61 9f cb 3f
       0.7780705561977316 0.21580146828980615
0001f0 74 22 d2 07 b5 28 f3 3f 44 d0 b1 fc 46 5c f5 3f
       1.1974382691861623 1.3350286360628312
000200 2e 4e 83 21 7b d3 6d bf 53 1c 95 a7 9e f4 d1 3f
       -0.0036408810520727397 0.28055540433382936
000210 18 1f e3 7e 46 86 ca bf 8b c8 26 f6 7b 9b d6 bf
       -0.20722275920547228 -0.35324000395042593
000220 3a 16 ee a5 cf bb 9c 3f 30 85 36 7a 1d 07 e4 bf
       0.028060192587437728 -0.6258685481044832
000230 7d 2d 18 3f 20 3b d8 bf ad 0a 91 3d ef 80 d0 bf
       -0.37860876237456137 -0.25786953937874096
000240 23 cf 51 50 cf 70 fd 3f c5 5e 84 59 9e f6 cc 3f
       1.8400414597971995 0.22627620097113357
000250 3e 88 d6 bf 44 38 ce 3f aa dd 14 fc 2b c3 e9 bf
       0.23609217993822712 -0.8050746844736996
000260 8a 00 74 76 cf 11 f2 3f ac 53 a6 b0 8d 12 cb bf
       1.1293482424808041 -0.21150370717501
000270 e6 9e 42 c1 83 7d f0 bf ed c8 4a f0 0a 5a f0 3f
       -1.0306432294109356 1.0219830881510987
000280 f0 00 7c 27 aa 23 ae bf c4 e6 74 73 e9 4e ed 3f
       -0.058865849799987546 0.9158828024876233
000290 8c 49 ab 0b 9a 33 e3 bf e5 10 90 97 c6 a3 cb bf
       -0.600049040595239 -0.21593553925061496
0002a0 70 15 c7 4a 89 b5 0c 40 52 2d 15 f8 18 72 0f c0
       3.588640770149759 -3.9307116872275083
0002b0 5d 55 14 64 de 64 d7 bf 79 61 2e 45 ec 62 20 40
       -0.36553153775579067 8.19320884886905
0002c0 c7 9f 35 16 0e 7f 22 c0 90 58 0d 76 fb 71 d9 3f
       -9.2481543484172 0.39758192566422057
0002d0 cc 2b 7c c3 02 ae 2f 40 19 54 e9 9b d4 b2 b3 3f
       15.839864834697345 0.07694748693877819
0002e0 0a a5 74 6a 2e 33 93 bf c6 f6 eb d4 bf 3c b8 bf
       -0.01874992871049578 -0.09467696140560652
0002f0 84 7b 41 fa 48 f0 95 3f 41 4a 25 f5 b5 42 bd bf
       0.021424427294160178 -0.11429917559625215
000300 e4 de c7 cf dc 56 ba 3f e8 40 80 31 39 ec a2 3f
       0.10288791725895013 0.036958491604424826
000310 cb b9 38 09 c0 2c b5 bf 99 6c da 60 bd 74 c4 bf
       -0.08271408295761444 -0.15981261471902
000320 ef 9b 0a d9 93 d7 bf bf c5 77 da 19 a8 17 d2 3f
       -0.12438320206511809 0.28269388699288484
000330 bd 18 a1 c3 b5 ee d1 3f f9 2b a0 b3 f2 b1 e8 bf
       0.2801947031442856 -0.7717221744836699
000340 3c 6a 90 06 bd 38 e4 bf 97 af b5 03 24 58 f2 3f
       -0.6319260719495285 1.1465187210951393
000350 7e e2 00 cf 72 4f f4 bf 9e 4a d6 29 7f 1e a4 3f
       -1.2693965993950367 0.03929517160135741
000360 63 13 6c 38 de 2b e5 3f 60 61 0a 32 94 9a e0 bf
       0.6616049863811039 -0.5188694932321987
000370 5c ec a2 32 84 81 e3 3f 13 c1 5d ea 01 04 c1 bf
       0.6095601071350631 -0.13293479865706867
000380 3f b7 29 cc 79 50 b9 bf e3 fb 5e f5 ca 4d 8f bf
       -0.09888421282240943 -0.015285096753244026
000390 95 1d 0a d1 4b 77 b9 3f 53 6a c7 13 b7 f7 ca bf
       0.09947656491760022 -0.21068466630716162
0003a0 5f e1 cb cb 76 c1 d0 3f 7c 41 d3 74 b8 e5 d0 3f
       0.26180810834877905 0.26402102860176746
0003b0 6d 42 d0 5c 9d 2b d6 3f 45 ef 4c c0 fe 3f d4 bf
       0.34641202987498937 -0.31640595225666274
0003c0 86 bf 50 a1 e4 04 c2 3f b9 aa ca e8 b1 11 db bf
       0.14077432514886484 -0.4229550145488861
0003d0 fe 6c 96 a1 63 7a b3 bf 89 b7 de 2f e8 6b d6 3f
       -0.07608626074800282 0.35033611941150206
0003e0 01 91 96 ad e4 31 b3 3f fe 15 14 b8 00 b6 d6 bf
       0.074980060939712 -0.35485856987392583
0003f0 5d 04 ae 5d c0 4e c3 bf e2 ea 4f 48 f6 bd a7 bf
       -0.15084080290037863 -0.04637117035595907
000400 d0 0a b8 a7 35 45 d2 3f 06 61 e3 84 49 a9 a2 bf
       0.2854742181663541 -0.03644780871553803
000410 4f bb 30 35 71 d5 c6 3f 0a d1 60 73 78 ff a3 3f
       0.17838873955903486 0.03905846031594436
000420 18 3a 95 1b 0a c3 c5 3f 2d f3 02 55 74 b5 cf bf
       0.17001463267156747 -0.24772504950478816
000430 f1 1c c7 83 45 33 bd 3f 19 a3 c1 20 69 36 9c 3f
       0.11406359164458359 0.027551310180942232
000440 7b 53 c4 5e 7a ae c8 bf 10 ad b4 a2 ac ad b8 bf
       -0.1928246462563513 -0.09640006038960203
000450 8d 8a ba a4 97 b8 b5 3f 37 3e 76 75 9e ae c6 bf
       0.08484790584274489 -0.17720394835895245
000460 de e7 ab 9a 36 65 a5 3f 40 e9 2d 60 a8 d6 63 3f
       0.04178782117919842 0.0024216927135373434
000470 e7 34 33 26 4a d7 3f 3f 77 d2 c7 2d d7 ed cc bf
       0.0004858547237745606 -0.22600831733111068
000480 6a 75 62 7b 3f 77 a7 3f 75 0d cc d8 26 eb c7 bf
       0.04583166485938757 -0.18686376176638544
000490 dd 4b 5a b8 47 fe c1 bf b1 31 2d 2c 3a 43 d0 3f
       -0.14057251454923306 0.2541032248889464
0004a0 21 0f ef 33 2f d3 b6 3f 6f ae 6d 71 05 cd ba bf
       0.08915991800227775 -0.10469087619065374
0004b0 a5 0b 7c e8 65 c6 b5 bf ba 14 24 7c 9f fc a2 bf
       -0.08505856443302535 -0.03708361044304227
0004c0 1d ed a3 65 1f d4 81 bf 8b d8 03 46 8a 58 c1 bf
       -0.008705373086277885 -0.13551453036024372
0004d0 2d 42 a3 6c c3 7a 94 bf 9e 1a 17 ef a4 52 c8 3f
       -0.019999555116387114 0.19002210306480988
0004e0 f8 07 5e 73 c6 ef c2 bf 80 96 25 d8 87 31 ce bf
       -0.14794235833329572 -0.2358865552334244
0004f0 94 af 89 85 4d 2b ad bf 95 98 bc 7b 46 09 d7 3f
       -0.05697099928951768 0.3599411209455721
000500 91 5b 59 dd 14 51 68 bf ca ea 83 3b 13 7a d5 bf
       -0.0029683501732437685 -0.3355758744434466
000510 0c 99 f3 8e be 0e cb 3f
       0.21138746242576933
